gpt.model (torch, 311831 bytes, 74 tensors)

token_embedding_table.weight f4 [4096, 8]
0	0x3bce6f3c	0.0062998813
1	0x3c826f8e	0.015922334
2	0x3bd4a3b0	0.0064892396
3	0x3c84ff3c	0.016234986
4	0xbc6908a8	-0.014223255
5	0x3bd0afcb	0.0063686124
6	0x3be474fc	0.0069719534
7	0xbc19ab4e	-0.009379221
8	0xbe06211a	-0.13098565
9	0x3d44cc2f	0.048046287
10	0x3c020eab	0.007938067
11	0xbc6fc515	-0.01463439
12	0x3cacf2aa	0.021111805
13	0x3ccd1b89	0.025037544
14	0xbcf7e2c7	-0.030259503
15	0x3d1527b0	0.036414802
16	0xbb0cfea2	-0.0021514078
17	0x3c8b8781	0.017032387
18	0xbced4a80	-0.028966188
19	0xbc8b4d10	-0.01700452
20	0xbc8deabf	-0.01732385
21	0x3cb8c295	0.022553721
22	0xbcef8614	-0.029238738
23	0x3c9fe547	0.019518508
24	0xbe21b2d8	-0.1579088
25	0xbd2b88c9	-0.041878495
26	0xbddccef7	-0.10781663
27	0xbdc3418d	-0.09533987
28	0x3d91c72c	0.07118067
29	0x3dd7f1d1	0.1054417
30	0x3dca63c9	0.09882314
31	0x3d26bf14	0.04070957
32	0xbdc07058	-0.09396428
33	0x3d1d9504	0.03847219
34	0x3d6ee8da	0.058327533
35	0x3d121006	0.035659812
36	0xbd07bb6d	-0.033137728
37	0xbdc356a8	-0.09538013
38	0xbb33d08d	-0.0027437538
39	0x3da2f863	0.07957532
40	0xbc31ed66	-0.010859823
41	0x3c3f16eb	0.011663179
42	0xbad028bf	-0.0015881284
43	0x3cdb0446	0.026735436
44	0xbc25a123	-0.010109219
45	0x3c214ed7	0.009845457
46	0x3b2ea20a	0.0026646876
47	0x3c214857	0.009843907
48	0xbc3ee98e	-0.011652363
49	0xbc4320db	-0.011909689
50	0x3c482207	0.012215144
51	0x3ade67f9	0.0016968242
52	0x3c115efb	0.008872743
53	0xbcad7184	-0.021172293
54	0x3ce43dc4	0.027861483
55	0x3d66183d	0.05617546
56	0x3cb32b64	0.021871276
57	0xbcad176c	-0.021129332
58	0xbce53df6	-0.027983647
59	0x3cfb8c93	0.03070668
60	0xbc1e85e5	-0.009675478
61	0xbc6954cc	-0.014241409
62	0xbc026378	-0.0079582855
63	0xbc837aab	-0.016049704
64	0x3b8ed2dc	0.0043586325
65	0x3bffa4bc	0.0078016203
66	0xbce79b52	-0.028272305
67	0xbbe1321b	-0.006872428
68	0xbd1cd754	-0.03829129
69	0xbc0c6371	-0.008568631
70	0xbc91e7d4	-0.01781074
71	0x3bc5b015	0.0060329535
72	0x3cc2b5a3	0.023768252
73	0x3cc4ee04	0.024039276
74	0x3d1ddb60	0.03853929
75	0xbbb40178	-0.005493339
76	0x3c703492	0.014660971
77	0xbc0a4c58	-0.008441053
78	0xbba55a69	-0.005046178
79	0xbca10950	-0.01965776
80	0xbd3a1c12	-0.045436926
81	0x3d80b24c	0.062840074
82	0x3dde9103	0.108675025
83	0xbd9ebfd3	-0.07751431
84	0x3b9d25af	0.004795752
85	0xbd7f9895	-0.062401373
86	0xbaef057e	-0.001823589
87	0x3d34ac45	0.0441096
88	0x3c193ec0	0.00935334
89	0xbad976dd	-0.001659121
90	0xbce92743	-0.028461104
91	0xba637ed7	-0.00086782634
92	0x3c7b5571	0.015340195
93	0x3c9a608b	0.018844863
94	0x3bde0f26	0.006776708
95	0x3d0369f2	0.03208346
96	0xbd585fca	-0.052825727
97	0x3c5965c1	0.013268889
98	0xbd061c7a	-0.032742
99	0xbd1b9d50	-0.03799182
100	0xbce363aa	-0.027757484
101	0xbb34cbcd	-0.0027587295
102	0x3cfae8bc	0.030628555
103	0x3b5613ec	0.0032665683
104	0x3d0a37fc	0.033744797
105	0xbbbff48a	-0.0058580087
106	0xbd0f2e8c	-0.0349565
107	0x3cd4d431	0.025980087
108	0x3d08bcbe	0.033383124
109	0xbcd59f95	-0.026077071
110	0xbc2c3086	-0.010509616
111	0x3cfac7ff	0.030612944
112	0xbd348d8d	-0.044080306
113	0x3c9c1fcc	0.01905813
114	0xbd036a5e	-0.03208386
115	0x3b90b37d	0.004415928
116	0x3bc85ede	0.0061148247
117	0x3bc58703	0.0060280575
118	0xbc3d8a23	-0.011568579
119	0xbc1b4839	-0.009477668
120	0xbdc97fd3	-0.09838834
121	0xbd5b6339	-0.053561423
122	0x3c874651	0.016513022
123	0x3d4441e1	0.04791439
124	0x3d0d4d69	0.034497652
125	0xbde6cb06	-0.112691924
126	0x3d0b1459	0.033954952
127	0x3c2920b1	0.010322736
128	0xbd799c90	-0.060940325
129	0x3dcb2d9b	0.09920808
130	0xbcbcbb90	-0.023038656
131	0xbd178300	-0.036990166
132	0xbd561732	-0.052268215
133	0x3dac0621	0.083996065
134	0xbce11329	-0.027474957
135	0xbd557b89	-0.052119765
136	0xbd9bbec0	-0.07604742
137	0x3d1021d5	0.035188515
138	0x3d62cb78	0.055369824
139	0xbd98f8d1	-0.07469333
140	0x3d27494e	0.040841393
141	0xbd54e460	-0.051975608
142	0x3d8dd9ab	0.069262825
143	0x3a293f6c	0.0006456289
144	0x3b98246c	0.0046430137
145	0xbcfa99e4	-0.030590959
146	0xb9780cf2	-0.00023655946
147	0x389ace63	7.381735e-05
148	0x3c4ddac5	0.012564366
149	0xbc97240b	-0.018449804
150	0xbc8e025d	-0.017335111
151	0x3c698c12	0.014254587
152	0xbc4b6222	-0.012413533
153	0xbce1530e	-0.027505424
154	0xb8112b17	-3.4610825e-05
155	0x3cffb386	0.031213533
156	0x3ba6e93c	0.0050937217
157	0x3cb05733	0.021525955
158	0x3c16d10f	0.009205117
159	0xbac95d25	-0.0015362842
160	0x3d06375a	0.03276763
161	0xbb8eaf9b	-0.00435443
162	0x3bf5027c	0.007477103
163	0xba182439	-0.00058037374
164	0x3bfbbd41	0.007682473
165	0x3d160b6e	0.036631994
166	0xbc301b78	-0.010748737
167	0x3c35db90	0.011099711
168	0x3b2a36cf	0.002597261
169	0xbce2acbf	-0.027670262
170	0x3c81ed6e	0.015860286
171	0xbc871452	-0.016489182
172	0x3af60661	0.0018770212
173	0xbbfe3330	-0.007757567
174	0xbbf388a3	-0.00743206
175	0xbb952953	-0.0045520454
176	0xbc86d4c1	-0.01645887
177	0xbc752e44	-0.014964644
178	0x3ccc5545	0.024943003
179	0x3c89062a	0.016726572
180	0xbc795327	-0.015217579
181	0xbd1a3ce9	-0.037655745
182	0x3ca9582d	0.020671928
183	0x3c55a6e7	0.013040281
184	0x3c17b0f9	0.009258502
185	0xbc718207	-0.014740474
186	0xbb54f35e	-0.003249369
187	0x3cbc6326	0.022996496
188	0x3ca6d1a2	0.020363633
189	0xbd0ce9f9	-0.03440282
190	0xbd11844e	-0.035526566
191	0xbd263fc3	-0.04058815
192	0x3b5a19d4	0.0033279555
193	0xbb1e9f01	-0.002420366
194	0xbd4a1db2	-0.049344726
195	0xbcb374ba	-0.021906245
196	0x3c143034	0.009044696
197	0xbc564865	-0.013078784
198	0xbca19a9e	-0.019727048
199	0x3c288142	0.010284724
200	0x3c4f49ca	0.01265187
201	0xbb813305	-0.0039428496
202	0x3d08e12e	0.033417873
203	0xbcb5896c	-0.022160254
204	0xbd186343	-0.03720404
205	0x3cde5438	0.027139768
206	0x3ccb07f4	0.024784066
207	0xbd125593	-0.03572614
208	0x3cf9c0c2	0.030487422
209	0xb8675a1a	-5.5158605e-05
210	0xbb949f0d	-0.004535562
211	0x3a896437	0.0010482137
212	0x3c9eb2bc	0.019372337
213	0x3b6ad97b	0.0035835195
214	0xbc3581c3	-0.011078301
215	0x3c1664bf	0.009179293
216	0x3d3e0365	0.046389956
217	0x3caa269f	0.02077037
218	0xbb1c3a50	-0.0023838468
219	0x3cfe36f0	0.031032056
220	0x3d0e2d2d	0.03471105
221	0x3cdf6a72	0.027272437
222	0x3c3742f5	0.011185397
223	0x3c9682bb	0.018372884
224	0x3b0d7fd9	0.0021591096
225	0xbc625968	-0.013815261
226	0x3c81d305	0.015847692
227	0xbbb80b3c	-0.0056165736
228	0xbb2ac91d	-0.0026059814
229	0xbcbb02de	-0.022828516
230	0x3cb52a5a	0.022114921
231	0xbc515b0d	-0.012778056
232	0xbd946949	-0.07246644
233	0xbdb77665	-0.08958129
234	0x3d6a3c8b	0.057186645
235	0x3d7d6983	0.061868202
236	0x3d9743ac	0.07385954
237	0xbd9c777c	-0.07639977
238	0xbc790cc1	-0.015200795
239	0x3d9d845f	0.076912634
240	0xbda5e899	-0.08101005
241	0xbd483bcf	-0.048885163
242	0x3d412672	0.047155805
243	0x3da22547	0.07917266
244	0x3d5d9d3a	0.05410502
245	0xbd2e1fb1	-0.042510692
246	0x3d37ce0a	0.04487423
247	0x3d2c6d3c	0.04209636
248	0xbc4d02ba	-0.012512857
249	0x3d212225	0.039339203
250	0xbb08e915	-0.002089088
251	0x3bd0013d	0.006347804
252	0xbca8dc1f	-0.020612774
253	0xbc862149	-0.016373293
254	0x3c11d9ee	0.008902056
255	0x3be43747	0.0069645974

position_embedding_table.weight f4 [8, 8]
0	0x3cfa3278	0.030541644
1	0xbcca4826	-0.024692606
2	0x3beaadd0	0.0071618333
3	0xbc83b809	-0.016078966
4	0xbbba4a85	-0.005685153
5	0xbb6e5f9b	-0.0036372903
6	0x3c91b107	0.017784609
7	0xbbcca3d9	-0.006245118
8	0x3cd4e538	0.025988206
9	0xbcd22aa0	-0.02565509
10	0x3c1ba727	0.009500301
11	0xbc973269	-0.018456655
12	0xbc06d214	-0.008228797
13	0xbc2deb9a	-0.010615254
14	0x3c472233	0.01215415
15	0xbbd23173	-0.006414586
16	0x3cff06fc	0.03113126
17	0xbcb96e31	-0.022635551
18	0x3c117d94	0.008880038
19	0xbc7e18dc	-0.015508857
20	0xbbcdceed	-0.006280771
21	0xbad2f1cb	-0.0016093788
22	0x3c83c3c0	0.016084552
23	0xbaab8c23	-0.0013088029
24	0x3d0ada79	0.033899758
25	0xbca3ec9a	-0.020010281
26	0x3c65d021	0.014026673
27	0xbc0cf68c	-0.008603703
28	0xbb4249ff	-0.0029646156
29	0x3ac04ea8	0.0014671879
30	0x3cc79135	0.024361232
31	0x3b75b827	0.0037493797
32	0x3d00f3c2	0.031482466
33	0xbcb1dadd	-0.021710807
34	0x3c2f7936	0.010710051
35	0xbc4608be	-0.012087045
36	0xbbcf3ac8	-0.006324146
37	0xbbac5d5a	-0.005260152
38	0x3c93c539	0.018038379
39	0xba6f1270	-0.0009119874
40	0x3d0b7a9d	0.03405248
41	0xbc93c579	-0.018038498
42	0x3c4031eb	0.011730651
43	0xbc41ba76	-0.011824241
44	0xbb6f5ad4	-0.0036522644
45	0xbafeb2c9	-0.0019431944
46	0x3cb2c287	0.021821273
47	0x399233b1	0.00027885803
48	0x3caa77f8	0.020809159
49	0xbd03cba7	-0.03217664
50	0x3a767311	0.00094013015
51	0xbcc4153c	-0.023935907
52	0xbc8c5a6f	-0.017132966
53	0xbc2d595e	-0.010580389
54	0x3c00c5f8	0.007859699
55	0xbc14459f	-0.009049802
56	0x3baaf10f	0.0052167247
57	0xbd34dea6	-0.044157647
58	0xbc84fbd6	-0.016233366
59	0xbd22247b	-0.03958557
60	0xbd021499	-0.031757925
61	0xbcdedfdf	-0.02720636
62	0xbbdf4241	-0.006813318
63	0xbcdeb841	-0.027187468

blocks.0.sa.heads.0.tril f4 [8, 8]
0	0x3f800000	1.0
1	0x00000000	0.0
2	0x00000000	0.0
3	0x00000000	0.0
4	0x00000000	0.0
5	0x00000000	0.0
6	0x00000000	0.0
7	0x00000000	0.0
8	0x3f800000	1.0
9	0x3f800000	1.0
10	0x00000000	0.0
11	0x00000000	0.0
12	0x00000000	0.0
13	0x00000000	0.0
14	0x00000000	0.0
15	0x00000000	0.0
16	0x3f800000	1.0
17	0x3f800000	1.0
18	0x3f800000	1.0
19	0x00000000	0.0
20	0x00000000	0.0
21	0x00000000	0.0
22	0x00000000	0.0
23	0x00000000	0.0
24	0x3f800000	1.0
25	0x3f800000	1.0
26	0x3f800000	1.0
27	0x3f800000	1.0
28	0x00000000	0.0
29	0x00000000	0.0
30	0x00000000	0.0
31	0x00000000	0.0
32	0x3f800000	1.0
33	0x3f800000	1.0
34	0x3f800000	1.0
35	0x3f800000	1.0
36	0x3f800000	1.0
37	0x00000000	0.0
38	0x00000000	0.0
39	0x00000000	0.0
40	0x3f800000	1.0
41	0x3f800000	1.0
42	0x3f800000	1.0
43	0x3f800000	1.0
44	0x3f800000	1.0
45	0x3f800000	1.0
46	0x00000000	0.0
47	0x00000000	0.0
48	0x3f800000	1.0
49	0x3f800000	1.0
50	0x3f800000	1.0
51	0x3f800000	1.0
52	0x3f800000	1.0
53	0x3f800000	1.0
54	0x3f800000	1.0
55	0x00000000	0.0
56	0x3f800000	1.0
57	0x3f800000	1.0
58	0x3f800000	1.0
59	0x3f800000	1.0
60	0x3f800000	1.0
61	0x3f800000	1.0
62	0x3f800000	1.0
63	0x3f800000	1.0

blocks.0.sa.heads.0.key.weight f4 [1, 8]
0	0x3e90748c	0.28213918
1	0xbd66651b	-0.056248765
2	0xbe466f61	-0.19378425
3	0xbeaff351	-0.34365323
4	0x3db1de37	0.08684962
5	0x3ee22f97	0.44176933
6	0xbeb5100b	-0.35363802
7	0x3eb9dbfe	0.36300653

blocks.0.sa.heads.0.query.weight f4 [1, 8]
0	0xbe19c4a0	-0.15016413
1	0x3eeaf1c3	0.45887575
2	0xbddf0999	-0.108905025
3	0xbe1e0ff1	-0.15435769
4	0x3d9364a0	0.07196927
5	0x3e8b49c9	0.2720473
6	0xbe8f06d7	-0.27934906
7	0xbe88b7ce	-0.26702732

blocks.0.sa.heads.0.value.weight f4 [1, 8]
0	0x3b6eeab7	0.003645582
1	0xbc329f2f	-0.01090221
2	0x3c2aff92	0.010436909
3	0x39577564	0.00020547729
4	0x3ce86fb7	0.028373582
5	0x3b7fcf9c	0.0039033657
6	0xbd3f0d17	-0.046643343
7	0x3cb8580a	0.022502918

blocks.0.sa.heads.1.tril f4 [8, 8]
0	0x3f800000	1.0
1	0x00000000	0.0
2	0x00000000	0.0
3	0x00000000	0.0
4	0x00000000	0.0
5	0x00000000	0.0
6	0x00000000	0.0
7	0x00000000	0.0
8	0x3f800000	1.0
9	0x3f800000	1.0
10	0x00000000	0.0
11	0x00000000	0.0
12	0x00000000	0.0
13	0x00000000	0.0
14	0x00000000	0.0
15	0x00000000	0.0
16	0x3f800000	1.0
17	0x3f800000	1.0
18	0x3f800000	1.0
19	0x00000000	0.0
20	0x00000000	0.0
21	0x00000000	0.0
22	0x00000000	0.0
23	0x00000000	0.0
24	0x3f800000	1.0
25	0x3f800000	1.0
26	0x3f800000	1.0
27	0x3f800000	1.0
28	0x00000000	0.0
29	0x00000000	0.0
30	0x00000000	0.0
31	0x00000000	0.0
32	0x3f800000	1.0
33	0x3f800000	1.0
34	0x3f800000	1.0
35	0x3f800000	1.0
36	0x3f800000	1.0
37	0x00000000	0.0
38	0x00000000	0.0
39	0x00000000	0.0
40	0x3f800000	1.0
41	0x3f800000	1.0
42	0x3f800000	1.0
43	0x3f800000	1.0
44	0x3f800000	1.0
45	0x3f800000	1.0
46	0x00000000	0.0
47	0x00000000	0.0
48	0x3f800000	1.0
49	0x3f800000	1.0
50	0x3f800000	1.0
51	0x3f800000	1.0
52	0x3f800000	1.0
53	0x3f800000	1.0
54	0x3f800000	1.0
55	0x00000000	0.0
56	0x3f800000	1.0
57	0x3f800000	1.0
58	0x3f800000	1.0
59	0x3f800000	1.0
60	0x3f800000	1.0
61	0x3f800000	1.0
62	0x3f800000	1.0
63	0x3f800000	1.0

blocks.0.sa.heads.1.key.weight f4 [1, 8]
0	0x3e85645c	0.2605313
1	0xbd17dc92	-0.037075587
2	0x3e94d0ef	0.29065654
3	0xbdb75708	-0.08952147
4	0xbbb43fb1	-0.0055007567
5	0x3e4977fc	0.19674677
6	0xbe98fa36	-0.29878396
7	0xbe093f68	-0.13403094

blocks.0.sa.heads.1.query.weight f4 [1, 8]
0	0x3e020b74	0.12699682
1	0xbe507a92	-0.20359257
2	0x3e7da4a0	0.2476983
3	0xbc54a764	-0.012979362
4	0xbb3a1205	-0.0028392088
5	0x3e305494	0.17219764
6	0xbeaec50a	-0.34134704
7	0xbd690ad1	-0.05689508

blocks.0.sa.heads.1.value.weight f4 [1, 8]
0	0xbc96407b	-0.018341294
1	0x3c988979	0.01862024
2	0xbc9bb85d	-0.01900881
3	0xbc282240	-0.010262072
4	0xbb22f81f	-0.002486713
5	0xbcc0629a	-0.023484517
6	0x3be83838	0.00708678
7	0x3d1c5775	0.038169343

blocks.0.sa.heads.2.tril f4 [8, 8]
0	0x3f800000	1.0
1	0x00000000	0.0
2	0x00000000	0.0
3	0x00000000	0.0
4	0x00000000	0.0
5	0x00000000	0.0
6	0x00000000	0.0
7	0x00000000	0.0
8	0x3f800000	1.0
9	0x3f800000	1.0
10	0x00000000	0.0
11	0x00000000	0.0
12	0x00000000	0.0
13	0x00000000	0.0
14	0x00000000	0.0
15	0x00000000	0.0
16	0x3f800000	1.0
17	0x3f800000	1.0
18	0x3f800000	1.0
19	0x00000000	0.0
20	0x00000000	0.0
21	0x00000000	0.0
22	0x00000000	0.0
23	0x00000000	0.0
24	0x3f800000	1.0
25	0x3f800000	1.0
26	0x3f800000	1.0
27	0x3f800000	1.0
28	0x00000000	0.0
29	0x00000000	0.0
30	0x00000000	0.0
31	0x00000000	0.0
32	0x3f800000	1.0
33	0x3f800000	1.0
34	0x3f800000	1.0
35	0x3f800000	1.0
36	0x3f800000	1.0
37	0x00000000	0.0
38	0x00000000	0.0
39	0x00000000	0.0
40	0x3f800000	1.0
41	0x3f800000	1.0
42	0x3f800000	1.0
43	0x3f800000	1.0
44	0x3f800000	1.0
45	0x3f800000	1.0
46	0x00000000	0.0
47	0x00000000	0.0
48	0x3f800000	1.0
49	0x3f800000	1.0
50	0x3f800000	1.0
51	0x3f800000	1.0
52	0x3f800000	1.0
53	0x3f800000	1.0
54	0x3f800000	1.0
55	0x00000000	0.0
56	0x3f800000	1.0
57	0x3f800000	1.0
58	0x3f800000	1.0
59	0x3f800000	1.0
60	0x3f800000	1.0
61	0x3f800000	1.0
62	0x3f800000	1.0
63	0x3f800000	1.0

blocks.0.sa.heads.2.key.weight f4 [1, 8]
0	0x3e4ffc2f	0.20311044
1	0x3e96cbb2	0.29452282
2	0xbe029058	-0.12750375
3	0xbd9ba879	-0.07600493
4	0x3e9476bd	0.2899684
5	0x3d8ed78b	0.06974705
6	0xbf33ee09	-0.7028509
7	0xbd1db1bb	-0.038499575

blocks.0.sa.heads.2.query.weight f4 [1, 8]
0	0xbe8fc82e	-0.28082412
1	0x3f2033f8	0.625793
2	0xbe80e40f	-0.25173995
3	0xbd3ba713	-0.04581363
4	0x3ed4e6c0	0.41582298
5	0x3dfdfa23	0.124012254
6	0xbea32d8b	-0.31870684
7	0xbeeefd8f	-0.46677825

blocks.0.sa.heads.2.value.weight f4 [1, 8]
0	0xbcdc999d	-0.026928717
1	0x3caa6360	0.020799339
2	0x3d10a146	0.035310052
3	0x3bd99ff6	0.0066413833
4	0xba4798b8	-0.00076140044
5	0xbcd9e4eb	-0.026598414
6	0x3c4b5f35	0.012412836
7	0xbd4058ae	-0.04695957

blocks.0.sa.heads.3.tril f4 [8, 8]
0	0x3f800000	1.0
1	0x00000000	0.0
2	0x00000000	0.0
3	0x00000000	0.0
4	0x00000000	0.0
5	0x00000000	0.0
6	0x00000000	0.0
7	0x00000000	0.0
8	0x3f800000	1.0
9	0x3f800000	1.0
10	0x00000000	0.0
11	0x00000000	0.0
12	0x00000000	0.0
13	0x00000000	0.0
14	0x00000000	0.0
15	0x00000000	0.0
16	0x3f800000	1.0
17	0x3f800000	1.0
18	0x3f800000	1.0
19	0x00000000	0.0
20	0x00000000	0.0
21	0x00000000	0.0
22	0x00000000	0.0
23	0x00000000	0.0
24	0x3f800000	1.0
25	0x3f800000	1.0
26	0x3f800000	1.0
27	0x3f800000	1.0
28	0x00000000	0.0
29	0x00000000	0.0
30	0x00000000	0.0
31	0x00000000	0.0
32	0x3f800000	1.0
33	0x3f800000	1.0
34	0x3f800000	1.0
35	0x3f800000	1.0
36	0x3f800000	1.0
37	0x00000000	0.0
38	0x00000000	0.0
39	0x00000000	0.0
40	0x3f800000	1.0
41	0x3f800000	1.0
42	0x3f800000	1.0
43	0x3f800000	1.0
44	0x3f800000	1.0
45	0x3f800000	1.0
46	0x00000000	0.0
47	0x00000000	0.0
48	0x3f800000	1.0
49	0x3f800000	1.0
50	0x3f800000	1.0
51	0x3f800000	1.0
52	0x3f800000	1.0
53	0x3f800000	1.0
54	0x3f800000	1.0
55	0x00000000	0.0
56	0x3f800000	1.0
57	0x3f800000	1.0
58	0x3f800000	1.0
59	0x3f800000	1.0
60	0x3f800000	1.0
61	0x3f800000	1.0
62	0x3f800000	1.0
63	0x3f800000	1.0

blocks.0.sa.heads.3.key.weight f4 [1, 8]
0	0xbe9d684a	-0.3074363
1	0x3e424824	0.18972832
2	0xbbc0a860	-0.005879447
3	0x3ea68531	0.32523492
4	0x3c17fb25	0.009276186
5	0xbed09196	-0.40736073
6	0x3c962a22	0.018330637
7	0x3c089521	0.008336336

blocks.0.sa.heads.3.query.weight f4 [1, 8]
0	0x3ea753fb	0.3268126
1	0xbeeb3abe	-0.45943254
2	0x3d51440e	0.051090293
3	0x3d8791df	0.066196196
4	0xbcca3cdd	-0.024687225
5	0xbe9a7555	-0.30167642
6	0x3e9c852e	0.30570358
7	0x3dd3f328	0.10349113

blocks.0.sa.heads.3.value.weight f4 [1, 8]
0	0xbd101d04	-0.03518392
1	0xbd3dba2d	-0.04632013
2	0x3c0a3e48	0.008437701
3	0x3c111c87	0.008856899
4	0x3c8d77ba	0.017269004
5	0x3a4a3900	0.0007714182
6	0x3ba55da3	0.0050465628
7	0xbb2c4480	-0.0026285946

blocks.0.sa.heads.4.tril f4 [8, 8]
0	0x3f800000	1.0
1	0x00000000	0.0
2	0x00000000	0.0
3	0x00000000	0.0
4	0x00000000	0.0
5	0x00000000	0.0
6	0x00000000	0.0
7	0x00000000	0.0
8	0x3f800000	1.0
9	0x3f800000	1.0
10	0x00000000	0.0
11	0x00000000	0.0
12	0x00000000	0.0
13	0x00000000	0.0
14	0x00000000	0.0
15	0x00000000	0.0
16	0x3f800000	1.0
17	0x3f800000	1.0
18	0x3f800000	1.0
19	0x00000000	0.0
20	0x00000000	0.0
21	0x00000000	0.0
22	0x00000000	0.0
23	0x00000000	0.0
24	0x3f800000	1.0
25	0x3f800000	1.0
26	0x3f800000	1.0
27	0x3f800000	1.0
28	0x00000000	0.0
29	0x00000000	0.0
30	0x00000000	0.0
31	0x00000000	0.0
32	0x3f800000	1.0
33	0x3f800000	1.0
34	0x3f800000	1.0
35	0x3f800000	1.0
36	0x3f800000	1.0
37	0x00000000	0.0
38	0x00000000	0.0
39	0x00000000	0.0
40	0x3f800000	1.0
41	0x3f800000	1.0
42	0x3f800000	1.0
43	0x3f800000	1.0
44	0x3f800000	1.0
45	0x3f800000	1.0
46	0x00000000	0.0
47	0x00000000	0.0
48	0x3f800000	1.0
49	0x3f800000	1.0
50	0x3f800000	1.0
51	0x3f800000	1.0
52	0x3f800000	1.0
53	0x3f800000	1.0
54	0x3f800000	1.0
55	0x00000000	0.0
56	0x3f800000	1.0
57	0x3f800000	1.0
58	0x3f800000	1.0
59	0x3f800000	1.0
60	0x3f800000	1.0
61	0x3f800000	1.0
62	0x3f800000	1.0
63	0x3f800000	1.0

blocks.0.sa.heads.4.key.weight f4 [1, 8]
0	0x3e53d089	0.20685019
1	0xbedb15a8	-0.4278996
2	0x3eaf6797	0.3425872
3	0xbd9642e6	-0.073369786
4	0xbe47dff7	-0.1951903
5	0xbd287381	-0.041125778
6	0x3f07972e	0.52965057
7	0xbd90df5d	-0.07073853

blocks.0.sa.heads.4.query.weight f4 [1, 8]
0	0xbed15bca	-0.40890342
1	0x3e39eee6	0.18157539
2	0xbda35d9b	-0.07976838
3	0xbd9c683d	-0.076370694
4	0xbeef2e5a	-0.4671505
5	0x3f229541	0.63508993
6	0x3e9afd05	0.30271164
7	0x3c2a962a	0.010411778

blocks.0.sa.heads.4.value.weight f4 [1, 8]
0	0xbb74c347	-0.003734784
1	0xbcf40695	-0.029788295
2	0x3d2af422	0.04173673
3	0x3c4e7490	0.012601033
4	0x3d343752	0.04399807
5	0x3d19f95a	0.037591316
6	0xbb7a07bd	-0.0038151585
7	0xbcae5bac	-0.021283947

blocks.0.sa.heads.5.tril f4 [8, 8]
0	0x3f800000	1.0
1	0x00000000	0.0
2	0x00000000	0.0
3	0x00000000	0.0
4	0x00000000	0.0
5	0x00000000	0.0
6	0x00000000	0.0
7	0x00000000	0.0
8	0x3f800000	1.0
9	0x3f800000	1.0
10	0x00000000	0.0
11	0x00000000	0.0
12	0x00000000	0.0
13	0x00000000	0.0
14	0x00000000	0.0
15	0x00000000	0.0
16	0x3f800000	1.0
17	0x3f800000	1.0
18	0x3f800000	1.0
19	0x00000000	0.0
20	0x00000000	0.0
21	0x00000000	0.0
22	0x00000000	0.0
23	0x00000000	0.0
24	0x3f800000	1.0
25	0x3f800000	1.0
26	0x3f800000	1.0
27	0x3f800000	1.0
28	0x00000000	0.0
29	0x00000000	0.0
30	0x00000000	0.0
31	0x00000000	0.0
32	0x3f800000	1.0
33	0x3f800000	1.0
34	0x3f800000	1.0
35	0x3f800000	1.0
36	0x3f800000	1.0
37	0x00000000	0.0
38	0x00000000	0.0
39	0x00000000	0.0
40	0x3f800000	1.0
41	0x3f800000	1.0
42	0x3f800000	1.0
43	0x3f800000	1.0
44	0x3f800000	1.0
45	0x3f800000	1.0
46	0x00000000	0.0
47	0x00000000	0.0
48	0x3f800000	1.0
49	0x3f800000	1.0
50	0x3f800000	1.0
51	0x3f800000	1.0
52	0x3f800000	1.0
53	0x3f800000	1.0
54	0x3f800000	1.0
55	0x00000000	0.0
56	0x3f800000	1.0
57	0x3f800000	1.0
58	0x3f800000	1.0
59	0x3f800000	1.0
60	0x3f800000	1.0
61	0x3f800000	1.0
62	0x3f800000	1.0
63	0x3f800000	1.0

blocks.0.sa.heads.5.key.weight f4 [1, 8]
0	0xbe803e78	-0.2504766
1	0xbe9bb95d	-0.30414858
2	0x3ed54742	0.41655928
3	0x3cdf0466	0.027223777
4	0x3e610072	0.21972826
5	0x3e4b7f8c	0.19872874
6	0x3e5415e0	0.2071147
7	0xbea32411	-0.31863454

blocks.0.sa.heads.5.query.weight f4 [1, 8]
0	0xbf131bbc	-0.57464194
1	0x3eca4b9e	0.39510816
2	0xbdbb161f	-0.09135079
3	0x3ea03f91	0.31298497
4	0x3d905424	0.070472986
5	0x3ea43514	0.32071745
6	0x3ccf889f	0.0253337
7	0xbed4a008	-0.41528344

blocks.0.sa.heads.5.value.weight f4 [1, 8]
0	0x3babbedf	0.0052412595
1	0xbd35322e	-0.04423731
2	0x3ca1b73f	0.019740699
3	0xbb7870fc	-0.003790914
4	0xbc810851	-0.015751036
5	0x3cb29e9f	0.021804152
6	0x3cfa2ee0	0.03053993
7	0x3a36070a	0.0006943798

blocks.0.sa.proj.weight f4 [8, 6]
0	0x3a894878	0.0010473868
1	0xbc030436	-0.007996609
2	0xbc2c3988	-0.010511763
3	0xbc56398d	-0.013075245
4	0xbc89e75a	-0.01683395
5	0x3cb07d2a	0.021544058
6	0xbb31d3e7	-0.002713436
7	0x3c5715fe	0.013127802
8	0x3cc1eda4	0.023672886
9	0xbb648789	-0.0034870824
10	0x3b543198	0.0032378193
11	0xbcf1a8ca	-0.02949943
12	0xbab54542	-0.0013829845
13	0xbb1bb4c0	-0.0023758858
14	0x3c863c6a	0.01638623
15	0x3c4dae10	0.012553707
16	0xbc08de99	-0.008353853
17	0x3cb60d57	0.022223158
18	0xbc38eb68	-0.011286594
19	0xbc6e2a05	-0.014536385
20	0xbc52bd5e	-0.0128625315
21	0x3c2336b8	0.009961776
22	0x3cb01193	0.021492755
23	0x3be5da32	0.0070145363
24	0x3a91d059	0.0011124715
25	0x3c26082f	0.010133787
26	0xbb2c79f9	-0.0026317819
27	0x3cdfca57	0.027318163
28	0xbd0e064c	-0.034673974
29	0xbd0d76b6	-0.03453704
30	0x3cb679c9	0.022274869
31	0xbcb02245	-0.021500716
32	0xbbb56e6b	-0.0055368445
33	0xbcb4ee0c	-0.022086166
34	0x3baabd6a	0.005210568
35	0xbcc53c86	-0.024076711
36	0xbd4ca44b	-0.04996137
37	0x3c921c4b	0.017835757
38	0x3cd7a31d	0.026322896
39	0x3c9377b6	0.018001419
40	0x3d161d40	0.03664899
41	0x3d157c69	0.0364956
42	0x3cf293e5	0.029611537
43	0xbb2aec65	-0.0026080844
44	0xbd35efbc	-0.04441808
45	0xbc88aba5	-0.016683409
46	0xbca0bf97	-0.019622607
47	0xbc27b0fb	-0.0102350665

blocks.0.sa.proj.bias f4 [8]
0	0xba810b7f	-0.0009845345
1	0x3b30f29b	0.0027000073
2	0xba42f1f6	-0.00074365677
3	0xb9025b35	-0.00012431743
4	0xb97d1e8d	-0.00024139341
5	0x3abf43bc	0.001459233
6	0x39cdbdc7	0.00039242042
7	0x393cc1cf	0.00018001276

blocks.0.ffwd.net.0.weight f4 [32, 8]
0	0xbc89c9e3	-0.0168199
1	0x3d793a78	0.060846776
2	0xbd6ae3b2	-0.057346053
3	0x3ca59392	0.020211969
4	0xbc29bd5b	-0.010360087
5	0xbc02da8a	-0.007986674
6	0x3d212c8c	0.039349124
7	0xbcf0fcb9	-0.029417383
8	0xbd445cb2	-0.047939964
9	0x3ccf3b91	0.025296958
10	0xbd02665a	-0.03183589
11	0x3cedb260	0.02901572
12	0x3c7359e1	0.014852972
13	0x3933439c	0.00017095957
14	0x3c9824a9	0.018572168
15	0xbc02f401	-0.007992745
16	0x3b5bb26d	0.0033523098
17	0xbc9f3fb8	-0.019439563
18	0x3cb03b2a	0.021512587
19	0xbc83ba61	-0.016080083
20	0x3c0f08aa	0.008730093
21	0x3cebe279	0.028794514
22	0xbd5045f0	-0.050847948
23	0xbc41ffc4	-0.011840764
24	0xbd2c5f17	-0.042082872
25	0x3dabd6c6	0.08390574
26	0xbd95e13e	-0.07318352
27	0x3c8899dc	0.016674928
28	0x3a7c1186	0.00096156483
29	0x3c98be2f	0.018645374
30	0xbc363c62	-0.011122795
31	0xbd7a2208	-0.06106761
32	0x3b185684	0.0023244927
33	0x3cab8dac	0.020941578
34	0xbd9b0037	-0.075684
35	0x3d44406c	0.047913
36	0xbc8b3e80	-0.016997576
37	0x3cb28f41	0.021796824
38	0x3cb8f926	0.02257974
39	0xbb9d1877	-0.004794176
40	0x3d16c92d	0.03681295
41	0xbc5bf2b0	-0.01342456
42	0x3d0cd30d	0.03438096
43	0x3cde75dd	0.027155811
44	0x3ce202f1	0.027589293
45	0xbc37a8df	-0.011209696
46	0xbd08e9fa	-0.033426262
47	0x3c47a47a	0.01218521
48	0x3afa7034	0.0019106925
49	0x3d0717f2	0.03298182
50	0xbccbb874	-0.024868228
51	0x3bf70bcc	0.007539248
52	0xbcbaeb4a	-0.022817273
53	0x3d493775	0.049125154
54	0x3cae867f	0.021304367
55	0xbd1c95fc	-0.038228974
56	0x3c82d41c	0.015970282
57	0xbb1ea070	-0.0024204515
58	0x3d143ab3	0.036188792
59	0xbd383c10	-0.044979155
60	0x3d05069d	0.03247701
61	0xbcf39363	-0.029733365
62	0xbc5374a8	-0.012906231
63	0x3ae4251a	0.0017406077
64	0xbcee638d	-0.029100204
65	0x3c6b3e94	0.0143581815
66	0xbc6f2423	-0.014596018
67	0xbca2ceef	-0.019874064
68	0xbc7ed12e	-0.015552802
69	0x3d401d94	0.046903208
70	0xbbefee1c	-0.007322086
71	0xbc9ff493	-0.019525802
72	0x3a84267e	0.0010082272
73	0xbcbc680c	-0.022998832
74	0xbd24d50e	-0.040242247
75	0x3d3361a8	0.043794304
76	0xbccf4bce	-0.025304701
77	0x3b91f0e3	0.0044537648
78	0x3c8c0b51	0.01709524
79	0xbc9a51e6	-0.01883788
80	0x3adb997c	0.0016754116
81	0xbaaa9fb6	-0.0013017568
82	0x3ca8ed1e	0.020620879
83	0x3d04945a	0.03236804
84	0xbd3b480b	-0.045723002
85	0xbd1217e9	-0.035667334
86	0x3d0fc68d	0.035101462
87	0xbc4434a8	-0.011975445
88	0xbbbea869	-0.005818416
89	0x3b34a565	0.0027564403
90	0xbc637f72	-0.013885366
91	0x3d196202	0.037446983
92	0xbd187da7	-0.037229206
93	0x3c54fd55	0.012999852
94	0x3d5f1396	0.054462038
95	0xbd875194	-0.06607357
96	0x3afcb203	0.0019279126
97	0x3d327334	0.043566898
98	0xbd6de065	-0.058075327
99	0x3b8a4a59	0.0042202887
100	0xbc6b939c	-0.014378455
101	0xbafa3e3c	-0.0019092034
102	0x3d85295d	0.0650203
103	0x3c5bc763	0.013414237
104	0xbc9a15d6	-0.01880924
105	0x3c0adc10	0.008475319
106	0xbc8bab13	-0.017049348
107	0x3d76984d	0.06020384
108	0xbbd434ca	-0.0064760195
109	0x3b0f819e	0.0021897326
110	0x3ce11969	0.027477937
111	0xbd01b760	-0.03166902
112	0x3ca0d1ef	0.019631354
113	0x3c9b7549	0.018976824
114	0xbc7639db	-0.015028442
115	0xbbf4e787	-0.0074738893
116	0xbd2fe956	-0.042947136
117	0xbbb60b0b	-0.0055555156
118	0x3ca8be62	0.020598594
119	0xbc896a7f	-0.016774414
120	0x3b7b271c	0.0038322872
121	0x3cd10e93	0.025519645
122	0x3c0fc2ea	0.0087744985
123	0xbc77c0dc	-0.015121665
124	0x3d101f5f	0.035186168
125	0xbc77d8f0	-0.0151274055
126	0xbd42477a	-0.047431447
127	0x3cd911ce	0.026497748
128	0xbd197b02	-0.037470825
129	0x3c89b348	0.01680912
130	0x3c7ba2a4	0.015358601
131	0xbcb3dc2d	-0.021955574
132	0xbc735dda	-0.014853919
133	0xbafe7214	-0.001941266
134	0xbd08d7b8	-0.03340885
135	0xbc873b0f	-0.016507654
136	0xbcc9cd6e	-0.02463409
137	0xbbe4525c	-0.006967826
138	0x3c48d493	0.012257713
139	0xbba4715e	-0.0050183972
140	0x3ca8de1c	0.020613723
141	0xbc450d8a	-0.012027154
142	0xbd1e3cd7	-0.03863224
143	0xbc323865	-0.010877703
144	0x3d0cdf19	0.03439245
145	0xbc2766f0	-0.010217413
146	0x3c1d1228	0.009586848
147	0xbbfc5359	-0.0077003655
148	0x3c5dbe8c	0.013534199
149	0xbcc002f6	-0.023438912
150	0x3c867aaa	0.016415913
151	0xbc92931b	-0.017892411
152	0xbc002ac7	-0.007822699
153	0x3be5751d	0.0070024864
154	0xbcf55f19	-0.029952573
155	0xbc173638	-0.009229235
156	0xbd64c137	-0.055848327
157	0x3d1afc3b	0.037838202
158	0x3b9fbad3	0.004874566
159	0xbc47c204	-0.012192253
160	0xbd38dff5	-0.045135457
161	0x3c9b4ad0	0.018956572
162	0xbc3c3347	-0.011486835
163	0xbc634cef	-0.013873323
164	0xbcec3558	-0.02883403
165	0x3ce08c8f	0.027410774
166	0x3cc9249f	0.024553595
167	0xbc946fd0	-0.018119723
168	0xbd86e306	-0.0658627
169	0x3cbc3053	0.022972262
170	0x3b409a5f	0.0029388887
171	0x3d5dcda7	0.054151203
172	0xbd7184f0	-0.05896467
173	0x3bc5e0f6	0.0060387803
174	0x3b989315	0.0046562054
175	0xbc239a41	-0.0099855075
176	0x3b01405b	0.0019722197
177	0x3ca53119	0.020165013
178	0xbc0bb6db	-0.008527483
179	0x3cc17943	0.023617392
180	0xbd3b6242	-0.045748003
181	0x3d1cd70c	0.038291022
182	0xbc887d7a	-0.016661394
183	0xbd191230	-0.03737086
184	0xbc57e505	-0.013177161
185	0x3d407139	0.046982978
186	0xbd09d0a2	-0.033646233
187	0x3d01e3c7	0.031711366
188	0xbd33e6a4	-0.043921128
189	0x3d21dedd	0.03951918
190	0x3c88823e	0.016663667
191	0xbcd876b1	-0.026423784
192	0xbaac1c35	-0.0013130965
193	0x3c5f53fd	0.013630864
194	0xbcc4299c	-0.023945622
195	0xbcc63962	-0.024197284
196	0xbd012a84	-0.031534687
197	0x3d726583	0.05917884
198	0x3bd73aeb	0.006568303
199	0xbcdb04e6	-0.026735734
200	0x3ba079da	0.0048973383
201	0xbc3f7d96	-0.011687657
202	0xbc322b43	-0.010874572
203	0x3c27e390	0.010247126
204	0xbd455630	-0.048177898
205	0x3d7598f9	0.05996034
206	0x3ccb28d6	0.024799746
207	0xbb1ac58a	-0.0023616278
208	0xbd38a4ed	-0.04507916
209	0x3cef8757	0.02923934
210	0xbcbcd1c3	-0.023049241
211	0xbbd5b506	-0.006521824
212	0xbd162533	-0.03665657
213	0x3c8b87b8	0.01703249
214	0x3cd223de	0.025651868
215	0xbb31bd84	-0.0027121017
216	0x3c897182	0.016777758
217	0xbb9b9a63	-0.004748629
218	0x3d1bde2b	0.038053673
219	0x3c0b4704	0.008500818
220	0xbd5005af	-0.05078667
221	0x3bd9674c	0.0066346284
222	0xbd10dd90	-0.03536755
223	0x3ca49e4e	0.020095017
224	0xbc877d8a	-0.016539354
225	0x3cdac83c	0.026706807
226	0xbd6961c3	-0.056978
227	0x3d58836f	0.05285972
228	0xbd52c827	-0.05146041
229	0xbb4d7886	-0.0031352355
230	0x3d3f5b39	0.046717856
231	0xbc8e3f72	-0.017364237
232	0xbd0753b3	-0.033038806
233	0x3ccc4ddd	0.024939472
234	0xbd0a74fb	-0.033802968
235	0x3cba9378	0.022775397
236	0xbd184e56	-0.037184082
237	0x3ccdce1f	0.0251227
238	0x3cfb3fb5	0.030670026
239	0x3a3601ca	0.00069430156
240	0xbd00d6fa	-0.031455018
241	0xbbf684b7	-0.007523145
242	0x3be426e6	0.006962645
243	0xbc82163f	-0.015879748
244	0xbd5cf8d7	-0.05394825
245	0x3c078fc0	0.008274019
246	0x3d9411bb	0.07229944
247	0x3b98524e	0.0046484834
248	0xbb55697f	-0.0032564101
249	0x3cb83c42	0.02248967
250	0xbd2e0d0c	-0.04249291
251	0x3cb4a065	0.022049138
252	0xbd1e0275	-0.038576562
253	0xbc73d27b	-0.014881725
254	0x3c575850	0.013143614
255	0xbcd4cdbd	-0.02597701

blocks.0.ffwd.net.0.bias f4 [32]
0	0xbca99c30	-0.020704359
1	0xbd405f5a	-0.046965934
2	0x3bcc6675	0.0062378
3	0xbd27fb5e	-0.041011207
4	0xbcfdc401	-0.030977251
5	0xbc465ad1	-0.012106613
6	0xbd126fc6	-0.035751127
7	0xbc3cb755	-0.011518319
8	0xbd7fd063	-0.062454592
9	0xbd019ff2	-0.031646676
10	0xbd2481f2	-0.040162988
11	0xbd25e0c9	-0.040497575
12	0xbd628c57	-0.05530962
13	0xbd1fb232	-0.0389883
14	0xbd261a98	-0.040552706
15	0x3ba7a505	0.0051161074
16	0xbcbced09	-0.023062246
17	0xbbdd8709	-0.006760482
18	0xbcb1958a	-0.021677751
19	0xbd3cbc57	-0.046078052
20	0xbd61455d	-0.05499779
21	0xbd6abdcc	-0.05730991
22	0xbcd0e3bf	-0.025499223
23	0xbd7539b9	-0.0598695
24	0xbd506869	-0.050880823
25	0xbc40cae3	-0.011767122
26	0xbd7bd221	-0.06147969
27	0xbbdecac1	-0.0067990725
28	0xbd2a8ed1	-0.041640107
29	0xbd5ecea3	-0.054396283
30	0xbd0f6ca1	-0.035015706
31	0xbd3f22f4	-0.046664193

blocks.0.ffwd.net.2.weight f4 [8, 32]
0	0x3d4648ba	0.0484092
1	0x3cdd679e	0.027026948
2	0xbc282479	-0.010262602
3	0x3d0ba888	0.03409627
4	0x3cfc7e89	0.030822055
5	0x3c47b003	0.012187961
6	0x3c99eba7	0.018789126
7	0xbc92b220	-0.017907202
8	0xbc5a0789	-0.013307461
9	0x3d0c21d7	0.03421196
10	0x3ceacc3c	0.02866184
11	0x3cbeb6f7	0.023280604
12	0x3cd39080	0.025825739
13	0xbc87234f	-0.016496329
14	0x3c8fe673	0.017565941
15	0xbca1f02b	-0.019767841
16	0x3b8d7a1d	0.0043175356
17	0xbc80cfc0	-0.015724063
18	0x3c564fc7	0.013080544
19	0x3d231189	0.039811645
20	0xbca7a422	-0.020464007
21	0xbc2dd282	-0.010609271
22	0x3c943b73	0.018094754
23	0x3d2c46dc	0.042059764
24	0x3cfb0b94	0.03064517
25	0xba82fa9d	-0.0009992901
26	0x3cc247f8	0.023715958
27	0x3cb32f02	0.021873001
28	0x3d42f3c6	0.04759576
29	0x3cd65321	0.026162686
30	0x3c0c9657	0.008580766
31	0x3c55a876	0.0130406525
32	0xbc17b33d	-0.009259042
33	0xba4f104f	-0.00078988535
34	0xbb90cb13	-0.0044187396
35	0xbbaa73c0	-0.0052017868
36	0xba367583	-0.00069602596
37	0xbb202e97	-0.0024441832
38	0x3ca42308	0.020036235
39	0x3c0996e5	0.0083977925
40	0x3c6da122	0.014503749
41	0x3b500fd8	0.0031747725
42	0x3ceecceb	0.029150447
43	0xbc7a9076	-0.015293231
44	0x3c40d3a3	0.011769208
45	0xbc5ad341	-0.013356031
46	0x3cc126d7	0.02357809
47	0x3ce6a025	0.028152535
48	0x3bc23b8e	0.0059275096
49	0x3caaa575	0.02083085
50	0x3c140d53	0.00903638
51	0x3b78dd5a	0.0037973733
52	0x3a3d059b	0.0007210613
53	0xbb91cb8f	-0.004449315
54	0xbbfafb1a	-0.007659328
55	0xbd283120	-0.041062474
56	0x3cf46375	0.029832581
57	0xbcd366a6	-0.025805783
58	0x3c6a1b14	0.0142886825
59	0xbc06276a	-0.008188108
60	0xbd4a0ecc	-0.049330518
61	0x3d051203	0.03248788
62	0x3b3a2b7b	0.0028407264
63	0xbcf23f93	-0.02957133
64	0xbc26be93	-0.010177272
65	0xbccf0b07	-0.025273813
66	0xb8fe9dfd	-0.000121410914
67	0xbb052eb9	-0.0020322038
68	0x3d5d329c	0.054003343
69	0xbc3a8d37	-0.011386207
70	0xbbdbaccb	-0.006703948
71	0x3afca831	0.0019276199
72	0x3ced9915	0.02900366
73	0x3c818ac7	0.015813245
74	0xbd1c0902	-0.038094528
75	0x3c26e7fe	0.010187147
76	0x3d8730d8	0.06601113
77	0x3bddcf6d	0.006769112
78	0x3b8a2d51	0.004216828
79	0x3aeeac57	0.001820932
80	0x3c3a7c42	0.011382164
81	0x3caa5d61	0.02079648
82	0x3bc8c015	0.0061264136
83	0xbca4ff71	-0.020141335
84	0xbc6ac577	-0.014329306
85	0xbd667062	-0.05625952
86	0xbbff5ea5	-0.007793265
87	0xbcea7ea7	-0.028624846
88	0xbcf71316	-0.030160468
89	0x3d1e9ca8	0.038723618
90	0xbc949ca6	-0.018141102
91	0x3c9aa749	0.018878596
92	0xbc8aa365	-0.016923616
93	0x3cdf21a1	0.027237715
94	0xbc0cf3da	-0.008603061
95	0xbc7562b7	-0.014977149
96	0xbbb67807	-0.0055685076
97	0xbd104944	-0.03522612
98	0xbc3d6721	-0.011560232
99	0x3ba8067d	0.0051277266
100	0xba11a5ab	-0.00055559975
101	0x3d02c280	0.03192377
102	0x3b2f1841	0.0026717337
103	0xbcbb27e3	-0.022846168
104	0xbc772786	-0.015085107
105	0x3c590667	0.013246155
106	0x3b2b1e82	0.0026110713
107	0x3cb9f6f8	0.022700772
108	0x3cb8f527	0.022577835
109	0xbcd144ef	-0.025545565
110	0x3c8109f7	0.015751822
111	0xbc1850ca	-0.009296605
112	0xbc0903f1	-0.008362756
113	0x3c4c0f68	0.012454845
114	0xbc830c8b	-0.015997192
115	0xbd004d26	-0.031323574
116	0xbd441b88	-0.04787782
117	0xbc4eda14	-0.012625236
118	0xbc741d38	-0.014899544
119	0xbb5d59b6	-0.0033775396
120	0xbcc9a448	-0.024614468
121	0x3cdb24b6	0.026750904
122	0xbce96d6d	-0.028494561
123	0x3cfa4379	0.030549752
124	0xbc4e6848	-0.012598105
125	0xbd1380a4	-0.036011353
126	0xbd08da3d	-0.033411253
127	0xbc86fbfb	-0.016477576
128	0xbbb420ec	-0.0054970887
129	0x3cc6ca20	0.024266303
130	0xbc7e348a	-0.015515456
131	0xbaa17807	-0.0012319096
132	0x3c931df9	0.017958628
133	0xbd0072f2	-0.03135962
134	0x3ca47a52	0.020077858
135	0xbc89a559	-0.016802477
136	0x3c8bfdb7	0.017088754
137	0x3b1704a5	0.002304354
138	0x3bf8e1c1	0.0075952713
139	0xbc876ac6	-0.016530406
140	0xbd360511	-0.044438425
141	0xba9f9f95	-0.0012178296
142	0x3cc31e32	0.02381811
143	0x3d38b2d5	0.045092423
144	0xbbe91b06	-0.007113817
145	0x3c74d37e	0.014943002
146	0x3d06d171	0.032914583
147	0x3beaf8f0	0.007170789
148	0x3d0d7d25	0.034543175
149	0x3c9ab468	0.018884853
150	0x3c3733f8	0.011181824
151	0x3d615f41	0.05502248
152	0x3b8abadc	0.004233701
153	0x3d4c4f3a	0.049880244
154	0x3c19a127	0.009376801
155	0xbd0d7cb5	-0.034542758
156	0x3cc8f12a	0.024529058
157	0x3be8157e	0.00708264
158	0xbc5d6453	-0.013512689
159	0x3c89b4bc	0.016809814
160	0xbd216a47	-0.039407995
161	0x3d18f8ac	0.037346527
162	0x3d24b6c7	0.040213373
163	0xbd8cdbf0	-0.06877887
164	0x3c1f1f4c	0.009712052
165	0x3cf95cf8	0.030439839
166	0x3c8211b7	0.015877588
167	0x3d3d9cc1	0.04629207
168	0x3bb3b843	0.005484612
169	0xbd31131f	-0.043231126
170	0xbce3e357	-0.027818365
171	0xbc828d4f	-0.015936522
172	0xbc910dc8	-0.017706767
173	0x3c113cf6	0.008864632
174	0xbcc423ed	-0.023942912
175	0x3c34e8bf	0.011041819
176	0xbd0b3891	-0.033989493
177	0x3c97a148	0.018509522
178	0x3c337797	0.010953805
179	0x3d27d102	0.04097081
180	0x3cb12b5d	0.021627123
181	0xbc0879a9	-0.008329787
182	0xbbe52df6	-0.0069940044
183	0xbd13580c	-0.03597264
184	0x3c68f756	0.014219126
185	0x3c725b9b	0.014792348
186	0x3b091a1d	0.0020920106
187	0xbcb0f4eb	-0.021601161
188	0xbd33d53c	-0.043904528
189	0xbbe22dd2	-0.006902435
190	0x3c4e76b2	0.012601541
191	0x3d077873	0.033073854
192	0xbcaa423f	-0.020783542
193	0xbcb53813	-0.022121465
194	0xbd023a5d	-0.03179394
195	0x3d888b49	0.066671915
196	0xbc78ba9a	-0.015181208
197	0xbcd36162	-0.025803272
198	0xbd678f22	-0.056532986
199	0x3ca6d96d	0.020367349
200	0xbd25975f	-0.04042756
201	0xbc842ddc	-0.016135149
202	0xbd74bbb1	-0.05974931
203	0xbcdfca9c	-0.027318291
204	0xbc9edb62	-0.01939172
205	0xbbcddf18	-0.0062826984
206	0x3aa242e9	0.001237956
207	0xbcba55f7	-0.02274607
208	0xbb50f12c	-0.003188203
209	0x3c3e94dc	0.0116321705
210	0xbbe94b35	-0.007119561
211	0xbd27bcd2	-0.040951557
212	0xbc1f7820	-0.00973323
213	0x3d31e70e	0.04343324
214	0xbc97b1e8	-0.01851745
215	0x3d179d25	0.0370151
216	0xbd38c296	-0.045107447
217	0xbd0af075	-0.033920724
218	0xbca412b8	-0.020028457
219	0x3cd442fd	0.025910849
220	0x3c2c53cc	0.010518026
221	0x3d4fd5f1	0.05074114
222	0xbc7b7417	-0.015347502
223	0xbcf806bb	-0.030276647
224	0x3bbf48ef	0.005837552
225	0xbca74fb9	-0.020423757
226	0x3b6fa391	0.0036566
227	0xbc48bf0a	-0.0122525785
228	0xbc129b15	-0.008948107
229	0xbc905b2b	-0.017621597
230	0xbb9aaf41	-0.004720599
231	0xbca86cb6	-0.02055965
232	0xbcca4fbb	-0.024696222
233	0xbbe9661a	-0.007122767
234	0xba88cff5	-0.0010437953
235	0x3d092202	0.033479698
236	0xbc301812	-0.010747926
237	0x3cda47fe	0.026645657
238	0x3c3ffe03	0.011718276
239	0xbcab340e	-0.020898845
240	0x3bb5fa0c	0.0055534896
241	0xbbde7522	-0.0067888657
242	0xbce513ed	-0.027963603
243	0x3bdcc12c	0.006736895
244	0x3c2f639f	0.010704904
245	0x3c828cf4	0.015936352
246	0x3c0c0c93	0.00854792
247	0xbd1abc49	-0.03777722
248	0x3c274eae	0.01021163
249	0xbc6514f8	-0.01398205
250	0xbb1c6fa2	-0.002387025
251	0xbb4d649f	-0.0031340492
252	0x3c814757	0.015781088
253	0xbd30df22	-0.043181546
254	0x3d41e5f1	0.04733843
255	0x3bd3571f	0.0064495946

blocks.0.ffwd.net.2.bias f4 [8]
0	0xbb8d7e2a	-0.0043180184
1	0x38f981b1	0.00011897402
2	0xb9dd287c	-0.00042182568
3	0x39a3e996	0.00031263818
4	0x3a867daf	0.0010260845
5	0xbafd1ce2	-0.0019310976
6	0x3b90bfcd	0.0044173957
7	0x3ab7195e	0.0013969352

blocks.0.ln1.weight f4 [8]
0	0x3f8ad080	1.0844879
1	0x3f8ec7d0	1.1154728
2	0x3f8916fa	1.0710137
3	0x3f836728	1.0265856
4	0x3f8fe33c	1.1241221
5	0x3f90a257	1.1299542
6	0x3f931fa6	1.1494033
7	0x3f909d11	1.1297933

blocks.0.ln1.bias f4 [8]
0	0x3d891585	0.06693558
1	0xbd1d8390	-0.038455546
2	0xbb06e4e2	-0.0020583202
3	0xbc8f8851	-0.017521055
4	0xbba00c75	-0.0048842975
5	0xbd827f6b	-0.06371959
6	0xbc343791	-0.010999576
7	0x3d9a61cf	0.07538187

blocks.0.ln2.weight f4 [8]
0	0x3f73b115	0.9519208
1	0x3f6fc196	0.93654764
2	0x3f7b6783	0.9820482
3	0x3f772fc7	0.9655728
4	0x3f7f8a1a	0.998201
5	0x3f72f116	0.9489912
6	0x3f7da257	0.99075836
7	0x3f762953	0.96156806

blocks.0.ln2.bias f4 [8]
0	0xbcbfbf22	-0.023406569
1	0xbc98dff3	-0.018661475
2	0x3cf82f4e	0.030295994
3	0xbbf53ede	-0.007484301
4	0x3d989df4	0.07452002
5	0xbad369af	-0.0016129519
6	0xbd71372e	-0.058890514
7	0x3d839a07	0.06425863

blocks.1.sa.heads.0.tril f4 [8, 8]
0	0x3f800000	1.0
1	0x00000000	0.0
2	0x00000000	0.0
3	0x00000000	0.0
4	0x00000000	0.0
5	0x00000000	0.0
6	0x00000000	0.0
7	0x00000000	0.0
8	0x3f800000	1.0
9	0x3f800000	1.0
10	0x00000000	0.0
11	0x00000000	0.0
12	0x00000000	0.0
13	0x00000000	0.0
14	0x00000000	0.0
15	0x00000000	0.0
16	0x3f800000	1.0
17	0x3f800000	1.0
18	0x3f800000	1.0
19	0x00000000	0.0
20	0x00000000	0.0
21	0x00000000	0.0
22	0x00000000	0.0
23	0x00000000	0.0
24	0x3f800000	1.0
25	0x3f800000	1.0
26	0x3f800000	1.0
27	0x3f800000	1.0
28	0x00000000	0.0
29	0x00000000	0.0
30	0x00000000	0.0
31	0x00000000	0.0
32	0x3f800000	1.0
33	0x3f800000	1.0
34	0x3f800000	1.0
35	0x3f800000	1.0
36	0x3f800000	1.0
37	0x00000000	0.0
38	0x00000000	0.0
39	0x00000000	0.0
40	0x3f800000	1.0
41	0x3f800000	1.0
42	0x3f800000	1.0
43	0x3f800000	1.0
44	0x3f800000	1.0
45	0x3f800000	1.0
46	0x00000000	0.0
47	0x00000000	0.0
48	0x3f800000	1.0
49	0x3f800000	1.0
50	0x3f800000	1.0
51	0x3f800000	1.0
52	0x3f800000	1.0
53	0x3f800000	1.0
54	0x3f800000	1.0
55	0x00000000	0.0
56	0x3f800000	1.0
57	0x3f800000	1.0
58	0x3f800000	1.0
59	0x3f800000	1.0
60	0x3f800000	1.0
61	0x3f800000	1.0
62	0x3f800000	1.0
63	0x3f800000	1.0

blocks.1.sa.heads.0.key.weight f4 [1, 8]
0	0x3e76d28b	0.24103753
1	0x3d271f92	0.040801592
2	0xbac8960d	-0.0015303508
3	0xbe276a33	-0.16349106
4	0xbe191653	-0.14949922
5	0x3d1a08a1	0.037605885
6	0xbe38d3a5	-0.18049486
7	0x3cd451d2	0.025917921

blocks.1.sa.heads.0.query.weight f4 [1, 8]
0	0x3d8d0bdf	0.0688703
1	0xbe0364cc	-0.1283142
2	0xbc44f40f	-0.012021079
3	0xbe496dd8	-0.19670808
4	0x3d57e7c9	0.052711282
5	0x3e1f0fb8	0.1553334
6	0xbdbfae47	-0.09359413
7	0x3e565349	0.20930208

blocks.1.sa.heads.0.value.weight f4 [1, 8]
0	0xbcf42f1e	-0.029807623
1	0xbc746964	-0.014917705
2	0x3b7a8ad6	0.0038229725
3	0x39a39e19	0.00031207575
4	0xbc2290fb	-0.009922261
5	0xbc220edb	-0.009891237
6	0xbc869839	-0.016430007
7	0x3d1b0f12	0.03785617

blocks.1.sa.heads.1.tril f4 [8, 8]
0	0x3f800000	1.0
1	0x00000000	0.0
2	0x00000000	0.0
3	0x00000000	0.0
4	0x00000000	0.0
5	0x00000000	0.0
6	0x00000000	0.0
7	0x00000000	0.0
8	0x3f800000	1.0
9	0x3f800000	1.0
10	0x00000000	0.0
11	0x00000000	0.0
12	0x00000000	0.0
13	0x00000000	0.0
14	0x00000000	0.0
15	0x00000000	0.0
16	0x3f800000	1.0
17	0x3f800000	1.0
18	0x3f800000	1.0
19	0x00000000	0.0
20	0x00000000	0.0
21	0x00000000	0.0
22	0x00000000	0.0
23	0x00000000	0.0
24	0x3f800000	1.0
25	0x3f800000	1.0
26	0x3f800000	1.0
27	0x3f800000	1.0
28	0x00000000	0.0
29	0x00000000	0.0
30	0x00000000	0.0
31	0x00000000	0.0
32	0x3f800000	1.0
33	0x3f800000	1.0
34	0x3f800000	1.0
35	0x3f800000	1.0
36	0x3f800000	1.0
37	0x00000000	0.0
38	0x00000000	0.0
39	0x00000000	0.0
40	0x3f800000	1.0
41	0x3f800000	1.0
42	0x3f800000	1.0
43	0x3f800000	1.0
44	0x3f800000	1.0
45	0x3f800000	1.0
46	0x00000000	0.0
47	0x00000000	0.0
48	0x3f800000	1.0
49	0x3f800000	1.0
50	0x3f800000	1.0
51	0x3f800000	1.0
52	0x3f800000	1.0
53	0x3f800000	1.0
54	0x3f800000	1.0
55	0x00000000	0.0
56	0x3f800000	1.0
57	0x3f800000	1.0
58	0x3f800000	1.0
59	0x3f800000	1.0
60	0x3f800000	1.0
61	0x3f800000	1.0
62	0x3f800000	1.0
63	0x3f800000	1.0

blocks.1.sa.heads.1.key.weight f4 [1, 8]
0	0xbe381751	-0.17977645
1	0xbdb2df0a	-0.087339476
2	0x3dd8c193	0.10583796
3	0x3ec17841	0.3778706
4	0xbe16bdd3	-0.1472085
5	0xbeaa1463	-0.3321868
6	0x3ec8ab9c	0.39193428
7	0xbe822db1	-0.25425485

blocks.1.sa.heads.1.query.weight f4 [1, 8]
0	0xbce0610e	-0.02739003
1	0xbe55f464	-0.20894009
2	0xbe01fbad	-0.12693663
3	0x3e5534fb	0.20820992
4	0xbe9b22a2	-0.3029986
5	0xbd360211	-0.044435564
6	0x3eed0dc4	0.46299565
7	0x3dd387cb	0.10328635

blocks.1.sa.heads.1.value.weight f4 [1, 8]
0	0x3b216996	0.0024629585
1	0xbb8bad86	-0.004262629
2	0x3c2aab10	0.010416761
3	0x3d6289d1	0.055307213
4	0xbc2422e8	-0.010018088
5	0x3c25ee3f	0.010127603
6	0x3cfbb88d	0.03072765
7	0xbc0b9732	-0.0085199345

blocks.1.sa.heads.2.tril f4 [8, 8]
0	0x3f800000	1.0
1	0x00000000	0.0
2	0x00000000	0.0
3	0x00000000	0.0
4	0x00000000	0.0
5	0x00000000	0.0
6	0x00000000	0.0
7	0x00000000	0.0
8	0x3f800000	1.0
9	0x3f800000	1.0
10	0x00000000	0.0
11	0x00000000	0.0
12	0x00000000	0.0
13	0x00000000	0.0
14	0x00000000	0.0
15	0x00000000	0.0
16	0x3f800000	1.0
17	0x3f800000	1.0
18	0x3f800000	1.0
19	0x00000000	0.0
20	0x00000000	0.0
21	0x00000000	0.0
22	0x00000000	0.0
23	0x00000000	0.0
24	0x3f800000	1.0
25	0x3f800000	1.0
26	0x3f800000	1.0
27	0x3f800000	1.0
28	0x00000000	0.0
29	0x00000000	0.0
30	0x00000000	0.0
31	0x00000000	0.0
32	0x3f800000	1.0
33	0x3f800000	1.0
34	0x3f800000	1.0
35	0x3f800000	1.0
36	0x3f800000	1.0
37	0x00000000	0.0
38	0x00000000	0.0
39	0x00000000	0.0
40	0x3f800000	1.0
41	0x3f800000	1.0
42	0x3f800000	1.0
43	0x3f800000	1.0
44	0x3f800000	1.0
45	0x3f800000	1.0
46	0x00000000	0.0
47	0x00000000	0.0
48	0x3f800000	1.0
49	0x3f800000	1.0
50	0x3f800000	1.0
51	0x3f800000	1.0
52	0x3f800000	1.0
53	0x3f800000	1.0
54	0x3f800000	1.0
55	0x00000000	0.0
56	0x3f800000	1.0
57	0x3f800000	1.0
58	0x3f800000	1.0
59	0x3f800000	1.0
60	0x3f800000	1.0
61	0x3f800000	1.0
62	0x3f800000	1.0
63	0x3f800000	1.0

blocks.1.sa.heads.2.key.weight f4 [1, 8]
0	0xbe61c74e	-0.22048685
1	0xbf0c6b06	-0.54850805
2	0x3e515351	0.20441939
3	0xbdcd1600	-0.10013962
4	0xbde37da7	-0.11107951
5	0x3dbe6c1b	0.09297963
6	0x3edec12e	0.4350676
7	0x3d997393	0.07492747

blocks.1.sa.heads.2.query.weight f4 [1, 8]
0	0xbe9c3064	-0.3050567
1	0x3dc2a7f8	0.09504694
2	0x3e6ac6e6	0.22927436
3	0x3e93137c	0.28725803
4	0xbd9b5ac5	-0.07585672
5	0x3e25f949	0.16208376
6	0x3e20be45	0.15697582
7	0xbee84fa9	-0.45373276

blocks.1.sa.heads.2.value.weight f4 [1, 8]
0	0xbb449594	-0.0029996382
1	0xbcda37d7	-0.026637955
2	0x3d1311e9	0.035905752
3	0xbc8fecee	-0.017569032
4	0x3ca3c1ae	0.019989815
5	0x3c60fb59	0.013731801
6	0xbc1d88ee	-0.009615166
7	0xbd560f8f	-0.05226093

blocks.1.sa.heads.3.tril f4 [8, 8]
0	0x3f800000	1.0
1	0x00000000	0.0
2	0x00000000	0.0
3	0x00000000	0.0
4	0x00000000	0.0
5	0x00000000	0.0
6	0x00000000	0.0
7	0x00000000	0.0
8	0x3f800000	1.0
9	0x3f800000	1.0
10	0x00000000	0.0
11	0x00000000	0.0
12	0x00000000	0.0
13	0x00000000	0.0
14	0x00000000	0.0
15	0x00000000	0.0
16	0x3f800000	1.0
17	0x3f800000	1.0
18	0x3f800000	1.0
19	0x00000000	0.0
20	0x00000000	0.0
21	0x00000000	0.0
22	0x00000000	0.0
23	0x00000000	0.0
24	0x3f800000	1.0
25	0x3f800000	1.0
26	0x3f800000	1.0
27	0x3f800000	1.0
28	0x00000000	0.0
29	0x00000000	0.0
30	0x00000000	0.0
31	0x00000000	0.0
32	0x3f800000	1.0
33	0x3f800000	1.0
34	0x3f800000	1.0
35	0x3f800000	1.0
36	0x3f800000	1.0
37	0x00000000	0.0
38	0x00000000	0.0
39	0x00000000	0.0
40	0x3f800000	1.0
41	0x3f800000	1.0
42	0x3f800000	1.0
43	0x3f800000	1.0
44	0x3f800000	1.0
45	0x3f800000	1.0
46	0x00000000	0.0
47	0x00000000	0.0
48	0x3f800000	1.0
49	0x3f800000	1.0
50	0x3f800000	1.0
51	0x3f800000	1.0
52	0x3f800000	1.0
53	0x3f800000	1.0
54	0x3f800000	1.0
55	0x00000000	0.0
56	0x3f800000	1.0
57	0x3f800000	1.0
58	0x3f800000	1.0
59	0x3f800000	1.0
60	0x3f800000	1.0
61	0x3f800000	1.0
62	0x3f800000	1.0
63	0x3f800000	1.0

blocks.1.sa.heads.3.key.weight f4 [1, 8]
0	0x3e5e57c7	0.21713172
1	0x3f00737b	0.5017621
2	0xbed42e25	-0.41441455
3	0x3e1e0a94	0.15433723
4	0xbe147d29	-0.1450087
5	0xbedd1f3e	-0.43187898
6	0xbc422661	-0.011849971
7	0xbe3c9009	-0.1841432

blocks.1.sa.heads.3.query.weight f4 [1, 8]
0	0x3f1e4889	0.6182943
1	0xbf0c7b6c	-0.54875827
2	0xbcd090ba	-0.025459636
3	0xbe46d8b3	-0.19418602
4	0x3d09073a	0.033454157
5	0xbe942297	-0.2893264
6	0x3d2a5011	0.041580264
7	0x3ebd3e65	0.36961666

blocks.1.sa.heads.3.value.weight f4 [1, 8]
0	0x3af9c308	0.0019055316
1	0xbd0b4559	-0.034001682
2	0x3ca8041d	0.020509774
3	0x3c5c6412	0.013451593
4	0xbbd838d1	-0.00659857
5	0x3bd8ecc8	0.0066200234
6	0x3d1a9684	0.0377412
7	0xbd5dbaf5	-0.054133374

blocks.1.sa.heads.4.tril f4 [8, 8]
0	0x3f800000	1.0
1	0x00000000	0.0
2	0x00000000	0.0
3	0x00000000	0.0
4	0x00000000	0.0
5	0x00000000	0.0
6	0x00000000	0.0
7	0x00000000	0.0
8	0x3f800000	1.0
9	0x3f800000	1.0
10	0x00000000	0.0
11	0x00000000	0.0
12	0x00000000	0.0
13	0x00000000	0.0
14	0x00000000	0.0
15	0x00000000	0.0
16	0x3f800000	1.0
17	0x3f800000	1.0
18	0x3f800000	1.0
19	0x00000000	0.0
20	0x00000000	0.0
21	0x00000000	0.0
22	0x00000000	0.0
23	0x00000000	0.0
24	0x3f800000	1.0
25	0x3f800000	1.0
26	0x3f800000	1.0
27	0x3f800000	1.0
28	0x00000000	0.0
29	0x00000000	0.0
30	0x00000000	0.0
31	0x00000000	0.0
32	0x3f800000	1.0
33	0x3f800000	1.0
34	0x3f800000	1.0
35	0x3f800000	1.0
36	0x3f800000	1.0
37	0x00000000	0.0
38	0x00000000	0.0
39	0x00000000	0.0
40	0x3f800000	1.0
41	0x3f800000	1.0
42	0x3f800000	1.0
43	0x3f800000	1.0
44	0x3f800000	1.0
45	0x3f800000	1.0
46	0x00000000	0.0
47	0x00000000	0.0
48	0x3f800000	1.0
49	0x3f800000	1.0
50	0x3f800000	1.0
51	0x3f800000	1.0
52	0x3f800000	1.0
53	0x3f800000	1.0
54	0x3f800000	1.0
55	0x00000000	0.0
56	0x3f800000	1.0
57	0x3f800000	1.0
58	0x3f800000	1.0
59	0x3f800000	1.0
60	0x3f800000	1.0
61	0x3f800000	1.0
62	0x3f800000	1.0
63	0x3f800000	1.0

blocks.1.sa.heads.4.key.weight f4 [1, 8]
0	0x3ea684d0	0.32523203
1	0xbe2ff649	-0.17183794
2	0xbdb94a53	-0.09047379
3	0xbe921cca	-0.2853759
4	0xbd93ed1b	-0.07222959
5	0x3ecef5a1	0.40421775
6	0xbe437486	-0.19087419
7	0xbd3d224e	-0.046175294

blocks.1.sa.heads.4.query.weight f4 [1, 8]
0	0xbeb41f23	-0.35180005
1	0x3eb913f2	0.3614803
2	0xbcfb7cfc	-0.030699246
3	0xbcf0967f	-0.029368637
4	0x3d9e86ef	0.0774058
5	0x3e63e885	0.22256668
6	0xbe973b51	-0.29537442
7	0xbddd4b3b	-0.10805365

blocks.1.sa.heads.4.value.weight f4 [1, 8]
0	0xbd0b62ea	-0.03402988
1	0xbd021062	-0.031753905
2	0x3cdf050b	0.027224084
3	0xbc5286bd	-0.012849507
4	0x3ce05a9c	0.027386956
5	0x3ba65fa7	0.0050773206
6	0x3cf153a9	0.029458838
7	0x3b452254	0.0030080276

blocks.1.sa.heads.5.tril f4 [8, 8]
0	0x3f800000	1.0
1	0x00000000	0.0
2	0x00000000	0.0
3	0x00000000	0.0
4	0x00000000	0.0
5	0x00000000	0.0
6	0x00000000	0.0
7	0x00000000	0.0
8	0x3f800000	1.0
9	0x3f800000	1.0
10	0x00000000	0.0
11	0x00000000	0.0
12	0x00000000	0.0
13	0x00000000	0.0
14	0x00000000	0.0
15	0x00000000	0.0
16	0x3f800000	1.0
17	0x3f800000	1.0
18	0x3f800000	1.0
19	0x00000000	0.0
20	0x00000000	0.0
21	0x00000000	0.0
22	0x00000000	0.0
23	0x00000000	0.0
24	0x3f800000	1.0
25	0x3f800000	1.0
26	0x3f800000	1.0
27	0x3f800000	1.0
28	0x00000000	0.0
29	0x00000000	0.0
30	0x00000000	0.0
31	0x00000000	0.0
32	0x3f800000	1.0
33	0x3f800000	1.0
34	0x3f800000	1.0
35	0x3f800000	1.0
36	0x3f800000	1.0
37	0x00000000	0.0
38	0x00000000	0.0
39	0x00000000	0.0
40	0x3f800000	1.0
41	0x3f800000	1.0
42	0x3f800000	1.0
43	0x3f800000	1.0
44	0x3f800000	1.0
45	0x3f800000	1.0
46	0x00000000	0.0
47	0x00000000	0.0
48	0x3f800000	1.0
49	0x3f800000	1.0
50	0x3f800000	1.0
51	0x3f800000	1.0
52	0x3f800000	1.0
53	0x3f800000	1.0
54	0x3f800000	1.0
55	0x00000000	0.0
56	0x3f800000	1.0
57	0x3f800000	1.0
58	0x3f800000	1.0
59	0x3f800000	1.0
60	0x3f800000	1.0
61	0x3f800000	1.0
62	0x3f800000	1.0
63	0x3f800000	1.0

blocks.1.sa.heads.5.key.weight f4 [1, 8]
0	0x3e2e66d5	0.17031415
1	0x3eb274ad	0.34854642
2	0xbe21f151	-0.15814711
3	0x3dac3909	0.08409316
4	0xbe83505a	-0.2564724
5	0xbe119e73	-0.142206
6	0xbd82fa16	-0.06395356
7	0xbe251d62	-0.1612449

blocks.1.sa.heads.5.query.weight f4 [1, 8]
0	0xbee9066d	-0.45512715
1	0x3ebd9e01	0.3703461
2	0x3d999117	0.07498377
3	0xbd93db8c	-0.072196096
4	0xbe0120b1	-0.12610127
5	0x3e95541f	0.29165742
6	0xbe0d9c1e	-0.13829085
7	0xbcee472c	-0.029086672

blocks.1.sa.heads.5.value.weight f4 [1, 8]
0	0x38f7ad40	0.00011810148
1	0xbcb7d96a	-0.022442538
2	0xbb25e822	-0.0025315364
3	0x3c0fb1e1	0.008770437
4	0x3bbea0ac	0.0058174934
5	0x3d193b11	0.037409846
6	0x3cf36fcf	0.0297164
7	0xbd0c6394	-0.034274653

blocks.1.sa.proj.weight f4 [8, 6]
0	0xbc84c729	-0.016208248
1	0x3ae191de	0.001720961
2	0x3be33cce	0.0069347387
3	0x3bd8256b	0.0065962574
4	0xbcb77384	-0.02239395
5	0x3c964a57	0.018345995
6	0x3c827d64	0.015928932
7	0xbc5e11c6	-0.013554042
8	0xbc730df0	-0.014834866
9	0xbcfed81b	-0.031108906
10	0x3c6a9168	0.014316894
11	0xbc8af9c7	-0.016964806
12	0x3ac8584f	0.0015285107
13	0xbacdb916	-0.0015695419
14	0x3d27a7ab	0.040931385
15	0x3cc6db75	0.024274567
16	0x3c2f3b49	0.010695287
17	0xbc846217	-0.016160054
18	0x3c24d590	0.010060683
19	0x3c60063b	0.01367336
20	0xbb669ee1	-0.0035189914
21	0x3c1f3565	0.00971732
22	0xbc1aea51	-0.009455279
23	0xbc1d4c2c	-0.00960068
24	0x3c14855b	0.009064998
25	0x3c6cd25e	0.014454452
26	0xbcb3a27b	-0.021928063
27	0xbc67228c	-0.014107358
28	0x3cb8a64b	0.022540232
29	0x3c6985f7	0.014253131
30	0xbc83e0bd	-0.016098375
31	0xbd0d8ba4	-0.034557
32	0x3c0d9ec7	0.0086438125
33	0xbca0a57c	-0.01961016
34	0xbcac1293	-0.02100495
35	0x3d07c606	0.033147834
36	0x3c5ceeb0	0.013484642
37	0x3c741c7d	0.01489937
38	0x3cf5c3c3	0.030000573
39	0x3d2cf03a	0.042221285
40	0x3cdd440d	0.027009988
41	0xbd28803e	-0.041137926
42	0x3c32ee78	0.010921113
43	0xbbe1c946	-0.0068904487
44	0xbc909923	-0.017651146
45	0xbcf69019	-0.030098008
46	0xbd0a6001	-0.033782963
47	0x3cfaf47a	0.030634154

blocks.1.sa.proj.bias f4 [8]
0	0xb9145493	-0.00014145886
1	0x3b1925be	0.0023368443
2	0xbad7caab	-0.0016463598
3	0xb9bd000e	-0.0003604893
4	0x3a152fe0	0.0005691033
5	0xba7ae119	-0.00095702853
6	0x3ad54d95	0.0016273732
7	0xb8d0963d	-9.946197e-05
